…
{'base_mode': 'ft_cos',
 'batch_size_base': 128,
 'batch_size_new': 0,
 'dataroot': 'data/',
 'dataset': 'cub200',
 'debug': False,
 'decay': 0.0005,
 'epochs_base': 100,
 'epochs_new': 100,
 'gamma': 0.1,
 'gpu': '0',
 'lr_base': 1e-05,
 'lr_new': 0.1,
 'model_dir': 'checkpoint/cub.pth',
 'momentum': 0.9,
 'new_mode': 'ft_cos',
 'not_data_init': False,
 'num_workers': 8,
 'project': 'base',
 'seed': 1,
 'start_session': 0,
 'temperature': 16,
 'test_batch_size': 100}
use gpu: [0]
Model = DataParallel(
  (module): MYNET(
    (backbone): VisionTransformer(
      (patch_embed): PatchEmbed(
        (proj): Conv2d(3, 768, kernel_size=(16, 16), stride=(16, 16))
      )
      (pos_drop): Dropout(p=0, inplace=False)
      (blocks): ModuleList(
        (0-11): 12 x Block(
          (norm1): LayerNorm((768,), eps=1e-06, elementwise_affine=True)
          (attn): Attention(
            (qkv): Linear(in_features=768, out_features=2304, bias=True)
            (attn_drop): Dropout(p=0, inplace=False)
            (proj): Linear(in_features=768, out_features=768, bias=True)
            (proj_drop): Dropout(p=0, inplace=False)
          )
          (drop_path): Identity()
          (norm2): LayerNorm((768,), eps=1e-06, elementwise_affine=True)
          (mlp): Mlp(
            (fc1): Linear(in_features=768, out_features=3072, bias=True)
            (act): GELU(approximate='none')
            (fc2): Linear(in_features=3072, out_features=768, bias=True)
            (drop): Dropout(p=0, inplace=False)
          )
          (tanh): Tanh()
        )
      )
      (norm): LayerNorm((768,), eps=1e-06, elementwise_affine=True)
      (tanh): Tanh()
      (head): Linear(in_features=768, out_features=1000, bias=True)
    )
    (activation): Tanh()
    (ln): LayerNorm((1000,), eps=1e-05, elementwise_affine=True)
    (fc): Linear(in_features=1000, out_features=200, bias=False)
  )
)
Loading init parameters from: checkpoint/cub.pth
Model = DataParallel(
  (module): MYNET(
    (backbone): VisionTransformer(
      (patch_embed): PatchEmbed(
        (proj): Conv2d(3, 768, kernel_size=(16, 16), stride=(16, 16))
      )
      (pos_drop): Dropout(p=0, inplace=False)
      (blocks): ModuleList(
        (0-11): 12 x Block(
          (norm1): LayerNorm((768,), eps=1e-06, elementwise_affine=True)
          (attn): Attention(
            (qkv): Linear(in_features=768, out_features=2304, bias=True)
            (attn_drop): Dropout(p=0, inplace=False)
            (proj): Linear(in_features=768, out_features=768, bias=True)
            (proj_drop): Dropout(p=0, inplace=False)
          )
          (drop_path): Identity()
          (norm2): LayerNorm((768,), eps=1e-06, elementwise_affine=True)
          (mlp): Mlp(
            (fc1): Linear(in_features=768, out_features=3072, bias=True)
            (act): GELU(approximate='none')
            (fc2): Linear(in_features=3072, out_features=768, bias=True)
            (drop): Dropout(p=0, inplace=False)
          )
          (tanh): Tanh()
        )
      )
      (norm): LayerNorm((768,), eps=1e-06, elementwise_affine=True)
      (tanh): Tanh()
      (head): Linear(in_features=768, out_features=1000, bias=True)
    )
    (activation): Tanh()
    (ln): LayerNorm((1000,), eps=1e-05, elementwise_affine=True)
    (fc): Linear(in_features=1000, out_features=200, bias=False)
  )
)
Loading init parameters from: checkpoint/cub.pth
FLOPs(million):  17582.945224
parameters:  | name                           | #elements or shape   |
|:-------------------------------|:---------------------|
| model                          | 86.8M                |
|  module                        |  86.8M               |
|   module.backbone              |   86.6M              |
…
